bias/data_files/rotated_bias_parameters.npy (npy, 2688 bytes, 1 tensors)

array f8 [40, 4, 2]
0	0x3ff892337663b557	1.5356936096753395
1	0x3fb5c4377550083d	0.0850252782256868
2	0xbfe8a2dbc993471f	-0.7698801934259086
3	0x3fb0f9cb865d9600	0.06631156950387407
4	0xbff36e4be4a74ac2	-1.2144278461243379
5	0x3f5b81283d05bf1d	0.0016787426903554566
6	0x3fe212ef31ddeb3d	0.5648113225900954
7	0x3f7c3656c427869c	0.006887759142473773
8	0x3ff067212619c255	1.0251780975633171
9	0x3fb56aa6e2337f35	0.08365862867821934
10	0xbfc95180c15a002c	-0.19779977265352622
11	0x3faa981c1018aca2	0.0519417543076426
12	0xbff207143fd53bbe	-1.1267282956575708
13	0x3f4c3b89d5a1bf56	0.0008615897197738847
14	0x3fdd9dd3e695da82	0.4627580406007966
15	0x3f740d7eb71430c2	0.004895682316839069
16	0x3ffa116340f829d7	1.6292450464121566
17	0x3fbae74e2e96ba8c	0.10509194028302654
18	0xbff4616ea38f3b7c	-1.2737871541064285
19	0x3fb59685dd707f12	0.08432804733501723
20	0xbff4b45a3085edc5	-1.2940313239513312
21	0x3f61ace759ced4e3	0.002157642228179145
22	0x3fe2fe854c07375c	0.5935694203305775
23	0x3f85c05af22d7f2f	0.010620794788053082
24	0x3ff7c869a7bf695c	1.4864288857121073
25	0x3fba623829144b69	0.10306120875274662
26	0xbff12f3b44ef8bbd	-1.0740311329652592
27	0x3fb9e496603e73f9	0.10114421701150879
28	0xbff4437328348050	-1.266467244196992
29	0x3f6102abe751ad83	0.0020764691822045558
30	0x3fe28bbb2c96f417	0.5795570250408016
31	0x3f84d2d5ce7e0c0f	0.01016776119627674
32	0x3ffb7c2f001a2cf6	1.7178182605737766
33	0x3fb5caf7fbcce173	0.08512830636471395
34	0xbfee4d1603bd43a5	-0.9469099114449945
35	0x3fb2884eee4ab610	0.0723923999564351
36	0xbff406022f29af10	-1.2514669267938565
37	0x3f610528155fd471	0.002077654159615743
38	0x3fe2dbc3efc756f9	0.5893268283059278
39	0x3f806f1ef8303025	0.008024446438888397
40	0x3fe140fc2b52c2e2	0.539182743659776
41	0x3fba743c8017d886	0.10333612563394654
42	0x3fc294b219b1c888	0.1451628327809582
43	0x3fa8d1c5712f70e5	0.04847542769104666
44	0xbff17cc4d9919c00	-1.0929611681729057
45	0x3f6279f3931fb1df	0.002255416614380431
46	0x3fdd6f7002f287b6	0.45992660796957396
47	0x3f811ea556107a16	0.008359233559585493
48	0x3ffb5996a044046d	1.7093721638086905
49	0x3fb7aac7a5cc9d5d	0.09244964406808749
50	0xbfee0b180be898a8	-0.9388542397107544
51	0x3fb4dd54e1285d11	0.08150225159657888
52	0xbff4389cc003be92	-1.263821363503585
53	0x3f6356c3dc5ffbdb	0.002360708752348268
54	0x3fe39839de02d8c3	0.6123322807459534
55	0x3f827b99bd2f48fa	0.009024811826666913
56	0x3ff8eb10bedaaadf	1.5573890166512496
57	0x3fb537613edf5b7d	0.08287627968762297
58	0xbfd76be47031a4f0	-0.3659602256435184
59	0x3fb1b6756e42939a	0.06919034902473556
60	0xbff31849612b2619	-1.1934293552061546
61	0x3f5f9edeaed6de25	0.0019299673689213784
62	0x3fe2014484d1691e	0.5626547426320803
63	0x3f7eeb8d2bc0c70d	0.007548858116978041
64	0x3fed2da7be901c78	0.9118231508190453
65	0x3fb5c8cb6ccc562b	0.08509513288694197
66	0xbfd18696c388df5e	-0.27383965583020664
67	0x3fa98700cc47fc28	0.049858117043179384
68	0xbff1ff909bc14ad5	-1.124893768709332
69	0x3f4eb329c89c21cb	0.0009368852635996348
70	0x3fdd414944803493	0.4571097535088679
71	0x3f73afe37457ee59	0.004806412214289312
72	0x3ff9fd890cd32478	1.6243982792823584
73	0x3fb7fa5f63490abb	0.09366413282354362
74	0xbfe1b780307651f9	-0.55364999261161
75	0x3fb54e0fe1677ee6	0.08322238209757024
76	0xbff35530032951f4	-1.2082977412693454
77	0x3f64175f3451e26d	0.0024525508366049415
78	0x3fe1dad6adeb266f	0.5579636952254087
79	0x3f839debd434004e	0.009578554547715747
80	0x3ff0edc021e16459	1.0580445598082149
81	0x3fb448a44d7809b4	0.07923342601137656
82	0x3fbc1124e3554ae4	0.10963659811140364
83	0x3fadadb341c7c315	0.057965852527450824
84	0xbff1c878261cef51	-1.1114427079000573
85	0x3f4f8c2d558f5866	0.0009627553328026672
86	0x3fdd31be943d34d5	0.45616116024468784
87	0x3f75e98dab294490	0.0053496869973780475
88	0x3ff2f8c4dd8d8221	1.1857346205143886
89	0x3fb6ba910d4690bb	0.08878428053009461
90	0xbfe7e19dd6ff819b	-0.7462910842114526
91	0x3facfe9184367aad	0.05662970293928047
92	0xbff346254bec1b03	-1.2046254125322668
93	0x3f4e650daa21d9f6	0.0009275738450600912
94	0x3fe15c06f9c0a308	0.5424837949732089
95	0x3f757c9909534581	0.0052457788453507135
96	0x3ff9194de8db46f7	1.5686778160056158
97	0x3fb492073c83d901	0.0803532145253918
98	0xbfe04ec6d9e61d9f	-0.5096163040006337
99	0x3fb100cfd9ce517f	0.06641863887336362
100	0xbff2fdea8996a60b	-1.1869912504720357
101	0x3f5e957f599a3e5e	0.0018666976597251565
102	0x3fe1f32e3885a310	0.5609351257272426
103	0x3f7cf9f840af7bab	0.0070743272180768075
104	0x3ff6537656c9ef6a	1.3953765287578457
105	0x3fb2680bb63398c3	0.07190011213569662
106	0xbfc05b09e2de2078	-0.12777827813647824
107	0x3fac2f0922c358c7	0.055046353810824615
108	0xbff2053dab427417	-1.1262795152499672
109	0x3f56803fce19c608	0.0013733504387370993
110	0x3fdec5256bfbb524	0.4807828478358991
111	0x3f75cb8634e920d7	0.005321048970081863
112	0x3fe180e892a882dd	0.5469858993929752
113	0x3fb448254cf4a32c	0.07922585610198202
114	0xbfc27d932519f9c3	-0.144457238307906
115	0x3faade77240053c9	0.052478526253402054
116	0xbff1f9e2beecf393	-1.123507257273762
117	0x3f5e47d168d4ada6	0.0018481774344064421
118	0x3fe011158512dcee	0.5020854567618735
119	0x3f7e70989253a0f8	0.0074315986468962356
120	0x3ff3e9e3c2caf896	1.2446019753547595
121	0x3fb1ae408d2e307b	0.06906512686527037
122	0x3fc2868407c665d6	0.1447300947154832
123	0x3fab0c3498d98a9c	0.05282749524919447
124	0xbff1871b029ef4b6	-1.0954847433452364
125	0x3f52bb2cfd4d01f1	0.001143258986488257
126	0x3fdc756d2c3286ef	0.4446671420683818
127	0x3f744f162f3c7d7d	0.004958235414761145
128	0x3ff3720119f819ce	1.2153330816669157
129	0x3fb43fa74e21e39c	0.07909627587822715
130	0x3fb2f1a363a44dee	0.0739996069208286
131	0x3fb0c0d66254911d	0.06544246578829811
132	0xbff21e1307604d8c	-1.1323423660404357
133	0x3f54cba1194d9f61	0.0012692521315446836
134	0x3fdf13d069d52581	0.4855843575974959
135	0x3f791a03268e27b0	0.0061283228941508144
136	0x3ff3e779cacf90bc	1.244012634496399
137	0x3fb1db6c699b2f1a	0.06975438669467984
138	0x3fc92c6da3e52600	0.19666834356966945
139	0x3faead8a4e46255b	0.059917757086689526
140	0xbff1b3e3a85f7500	-1.106418283182677
141	0x3f52b7b633ed5762	0.0011424331020939084
142	0x3fdd2c51bbe9c9de	0.45583003378774645
143	0x3f75cc178b94594c	0.00532159039837261
144	0x3ffaee1319036a95	1.6831236817439834
145	0x3fb6ce3b61ed5576	0.08908435002134305
146	0xbf93ff6960d2c95f	-0.019529005560522502
147	0x3fb72fea4f85c69a	0.09057487908810416
148	0xbff25a9738f65162	-1.1471168732724313
149	0x3f67fa1860e7b906	0.0029268718856122504
150	0x3fe144d7ed95e29c	0.5396537437764723
151	0x3f85b65cd7861346	0.010601735427152936
152	0x3ffb0177ff802a16	1.687858579682716
153	0x3fb2f02c3f75223a	0.07397724675423314
154	0x3fa253fff30ba0fc	0.035797117632514
155	0x3fb167f0d2363ac5	0.06799225933194027
156	0xbff215eea3ad9656	-1.1303545373606503
157	0x3f6280e6efb74b26	0.002258730933797709
158	0x3fe060619ef635e2	0.5117652992936963
159	0x3f8007ff3105d0be	0.00782775276523073
160	0x3ff59bee5810c3e7	1.3505690994318174
161	0x3fb477d71e8ab15d	0.07995361800812391
162	0xbfdd30303a556a8b	-0.45606618591924847
163	0x3fad9dda87e89db2	0.05784495266953672
164	0xbff290d177f62600	-1.1603560148236056
165	0x3f54c3b8e6604da8	0.0012673669493822124
166	0x3fe03e1d570b6d86	0.5075823497858643
167	0x3f770da963adc34a	0.005628263165690603
168	0x3ff758961bac8dae	1.459127529241282
169	0x3fb5d80aafd04d55	0.08532778541876003
170	0xbfe29bde366740a6	-0.5815268576207202
171	0x3fb285fae490c4a6	0.07235687332355897
172	0xbff34918cec7a390	-1.2053459241235238
173	0x3f5aa17f217ae615	0.0016254178535021248
174	0x3fe1af5239864015	0.5526515124820458
175	0x3f7d7d677050211e	0.007199672753820855
176	0x3feaef90648e0499	0.8417436565361128
177	0x3fbb6a37f5b6a150	0.10708951710569647
178	0xbfd9b59be33b435e	-0.4017095297868333
179	0x3fab9142694bc7d5	0.053842616418378654
180	0xbff260885ad4edf0	-1.1485675380816893
181	0x3f5831c60bce3f1f	0.0014767107051944573
182	0x3fe021882a9810d6	0.504093249503536
183	0x3f787145cee9a980	0.00596740025376119
184	0x40024c7b6ed19615	2.2873448045454645
185	0x3fc5c872f7758498	0.17017972071611065
186	0xbffd5dfd9ec714ba	-1.8354469492199272
187	0x3fc4735b12c306ff	0.15977037826637994
188	0xbff67fc31d63d43f	-1.4061919353528223
189	0x3f7d2088dd14b66f	0.007111105559756233
190	0x3fe5626ec1c8e75d	0.6682657036646834
191	0x3f9734d472e65dc7	0.022662467492038176
192	0x3ffe2a3839822142	1.8853075262469052
193	0x3fbb7d54df9695a5	0.10738115748116302
194	0xbfe9840c7fe6f523	-0.7973692415322698
195	0x3fb8ee17f7f596f2	0.09738302043623628
196	0xbff3e535b5217c81	-1.243459422628604
197	0x3f6d6ed6f7e2303c	0.0035928915595544713
198	0x3fe320af6cc2d7da	0.5977398990860323
199	0x3f89740849a2d0d3	0.012428345439140653
200	0x3ff37c99d809d314	1.2179201544760803
201	0x3fb5538fc1baf230	0.08330629806273104
202	0xbfd58c2b81a8d82b	-0.33668029462876586
203	0x3fb15910edf1125b	0.06776529130099489
204	0xbff2d3d776759ac7	-1.1767191531486547
205	0x3f53da80aaf6bfbf	0.001211763050246603
206	0x3fe0ce0ef8bc981b	0.525153623403415
207	0x3f7970028821e6c8	0.0062103365800056445
208	0x3fec05a6fe537d8d	0.8756899802501025
209	0x3fb7ca9231c1950b	0.09293473925352573
210	0xbfcead49dba24dd7	-0.2396633455688135
211	0x3faa3fe22403946e	0.05126864137290786
212	0xbff201032038fa05	-1.125247121686358
213	0x3f5158dd68afa150	0.0010587846943455777
214	0x3fdda744392fcfb8	0.4633341368164525
215	0x3f759b08a63b9143	0.005274804865369301
216	0x3ff5e9dcb69895e7	1.3695952541978558
217	0x3fb69335dece3a12	0.0881837529143257
218	0xbfcc200032e7f1ea	-0.21972658620496982
219	0x3fb6b95aa51c73e2	0.08876577883752604
220	0xbff2c0411cfee327	-1.1719370968477933
221	0x3f5e8a90a83363da	0.0018640911737774963
222	0x3fe0de5134d7b3d8	0.5271383316118046
223	0x3f8127ff03962fe3	0.008377067849117686
224	0x3fc8c81af59aaf9c	0.19360672943491586
225	0x3fb60d5865374af0	0.08614113303273618
226	0x3fcabd0463ea4558	0.20889334562938688
227	0x3fa83aa688065553	0.047322467903692676
228	0xbff128609f6dc279	-1.0723577716527457
229	0x3f6b6ccb61312b1e	0.0033477756747165707
230	0x3fde4491c07760ac	0.4729351405671973
231	0x3f8800c9048e2975	0.011720247699277245
232	0x3fe728a9dc1438ec	0.7237138079088061
233	0x3fb643ad77623cdb	0.08697017826692692
234	0xbfacfdaa927b337d	-0.05662282026387453
235	0x3fa849254903d375	0.04743305698676795
236	0xbff1c195830869fd	-1.1097617262336137
237	0x3f557c2e4c9b7c8f	0.0013113453045930123
238	0x3fdda644fa7c4fbd	0.4632732816837651
239	0x3f79732f1cdb972c	0.0062133636799666485
240	0x3ff40ea8f8d7dfce	1.2535791130485339
241	0x3fb1f05cb25a4934	0.0700738845282885
242	0x3fc7334a0264f97c	0.18125271908679597
243	0x3facceb8819346dd	0.05626465398530709
244	0xbff1c617d8d4055b	-1.1108625860072923
245	0x3f5404192f13fdf5	0.0012216802536498793
246	0x3fddf0a7f0c7357e	0.4678134776448458
247	0x3f769a1f09679449	0.00551807521558085
248	0x3fead855a40f2e74	0.8389080242427114
249	0x3fb5f10571cd1261	0.08570894268366082
250	0x3fc4c3306996a6d7	0.16220669894874248
251	0x3fa7677b7867e9ca	0.045711382339465326
252	0xbff15d9ae2149d5f	-1.0853527861853178
253	0x3f4de55fabb90bcc	0.0009123532431164426
254	0x3fdb8202840f1c0a	0.4298101701392062
255	0x3f7542bf92b127b6	0.005190609294979545
